(568, 6)
test length =  227
train length =  341
(291, 50, 1)
_________________________________________________________________
Layer (type)                 Output Shape              Param #   
=================================================================
lstm_1 (LSTM)                (None, 50, 50)            10400     
_________________________________________________________________
dropout_1 (Dropout)          (None, 50, 50)            0         
_________________________________________________________________
lstm_2 (LSTM)                (None, 50, 50)            20200     
_________________________________________________________________
dropout_2 (Dropout)          (None, 50, 50)            0         
_________________________________________________________________
lstm_3 (LSTM)                (None, 50, 50)            20200     
_________________________________________________________________
dropout_3 (Dropout)          (None, 50, 50)            0         
_________________________________________________________________
lstm_4 (LSTM)                (None, 50)                20200     
_________________________________________________________________
dropout_4 (Dropout)          (None, 50)                0         
_________________________________________________________________
dense_1 (Dense)              (None, 1)                 51        
=================================================================
Total params: 71,051
Trainable params: 71,051
Non-trainable params: 0
_________________________________________________________________
Epoch 1/200

 32/291 [==>...........................] - ETA: 26s - loss: 0.2629
 64/291 [=====>........................] - ETA: 11s - loss: 0.2381
 96/291 [========>.....................] - ETA: 7s - loss: 0.2187 
…
