(1988, 6)
test length =  795
train length =  1193
(1143, 50, 1)
_________________________________________________________________
Layer (type)                 Output Shape              Param #   
=================================================================
lstm_1 (LSTM)                (None, 50, 50)            10400     
_________________________________________________________________
dropout_1 (Dropout)          (None, 50, 50)            0         
_________________________________________________________________
lstm_2 (LSTM)                (None, 50, 50)            20200     
_________________________________________________________________
dropout_2 (Dropout)          (None, 50, 50)            0         
_________________________________________________________________
lstm_3 (LSTM)                (None, 50, 50)            20200     
_________________________________________________________________
dropout_3 (Dropout)          (None, 50, 50)            0         
_________________________________________________________________
lstm_4 (LSTM)                (None, 50)                20200     
_________________________________________________________________
dropout_4 (Dropout)          (None, 50)                0         
_________________________________________________________________
dense_1 (Dense)              (None, 1)                 51        
=================================================================
Total params: 71,051
Trainable params: 71,051
Non-trainable params: 0
_________________________________________________________________
Epoch 1/200

  32/1143 [..............................] - ETA: 2:15 - loss: 0.2202 - mean_absolute_error: 0.4466 - mean_squared_error: 0.2202
  64/1143 [>.............................] - ETA: 1:08 - loss: 0.1591 - mean_absolute_error: 0.3635 - mean_squared_error: 0.1591
…
