(568, 6)
test length =  227
train length =  341
(291, 50, 1)
_________________________________________________________________
Layer (type)                 Output Shape              Param #   
=================================================================
lstm_1 (LSTM)                (None, 50, 50)            10400     
_________________________________________________________________
dropout_1 (Dropout)          (None, 50, 50)            0         
_________________________________________________________________
lstm_2 (LSTM)                (None, 50, 50)            20200     
_________________________________________________________________
dropout_2 (Dropout)          (None, 50, 50)            0         
_________________________________________________________________
lstm_3 (LSTM)                (None, 50, 50)            20200     
_________________________________________________________________
dropout_3 (Dropout)          (None, 50, 50)            0         
_________________________________________________________________
lstm_4 (LSTM)                (None, 50)                20200     
_________________________________________________________________
dropout_4 (Dropout)          (None, 50)                0         
_________________________________________________________________
dense_1 (Dense)              (None, 1)                 51        
=================================================================
Total params: 71,051
Trainable params: 71,051
Non-trainable params: 0
_________________________________________________________________
Epoch 1/1000

 32/291 [==>...........................] - ETA: 29s - loss: 0.3141 - mean_absolute_error: 0.5114 - mean_squared_error: 0.3141
 64/291 [=====>........................] - ETA: 13s - loss: 0.2849 - mean_absolute_error: 0.4927 - mean_squared_error: 0.2849
…
