(568, 6)
test length =  227
train length =  341
features_set_train shape =  (291, 50, 2)
_________________________________________________________________
Layer (type)                 Output Shape              Param #   
=================================================================
conv2d_1 (Conv2D)            (None, 50, 1, 1)          3         
_________________________________________________________________
reshape_1 (Reshape)          (None, 50, 1)             0         
=================================================================
Total params: 3
Trainable params: 3
Non-trainable params: 0
_________________________________________________________________
None
_________________________________________________________________
Layer (type)                 Output Shape              Param #   
=================================================================
conv2d_1 (Conv2D)            (None, 50, 1, 1)          3         
_________________________________________________________________
reshape_1 (Reshape)          (None, 50, 1)             0         
_________________________________________________________________
lstm_1 (LSTM)                (None, 50, 50)            10400     
_________________________________________________________________
dropout_1 (Dropout)          (None, 50, 50)            0         
_________________________________________________________________
lstm_2 (LSTM)                (None, 50, 50)            20200     
_________________________________________________________________
dropout_2 (Dropout)          (None, 50, 50)            0         
_________________________________________________________________
lstm_3 (LSTM)                (None, 50, 50)            20200     
_________________________________________________________________
dropout_3 (Dropout)          (None, 50, 50)            0         
_________________________________________________________________
lstm_4 (LSTM)                (None, 50)                20200     
_________________________________________________________________
dropout_4 (Dropout)          (None, 50)                0         
_________________________________________________________________
dense_1 (Dense)              (None, 1)                 51        
=================================================================
Total params: 71,054
Trainable params: 71,054
Non-trainable params: 0
_________________________________________________________________
Epoch 1/1000

 32/291 [==>...........................] - ETA: 42s - loss: 0.2871 - mean_absolute_error: 0.4737 - mean_squared_error: 0.2871
 64/291 [=====>........................] - ETA: 19s - loss: 0.2556 - mean_absolute_error: 0.4448 - mean_squared_error: 0.2556
…
